Calendar/trained_weights.npy (npy, 780 bytes, 1 tensors)

array f4 [163]
00000000: 33f4 ce44 1644 5944 57fc 41c2 484f 0644
00000010: abf5 8143 c91c c143 e79d 1344 e091 18c4
00000020: 2a7a 91c3 e48b 91c3 add5 13c3 4bd6 a143
00000030: 1db0 8dc4 c4fe a9c3 f866 1243 1f19 be43
00000040: 336e 5841 7ef6 16c4 b65a 1b44 3a0c 5343
00000050: d3dc 4244 498a 1b44 7d88 51c4 9023 0444
00000060: d406 f943 4d58 2f43 76b8 2544 2b05 8ec4
00000070: 65e5 c143 4636 0644 0153 5241 96a2 0644
00000080: 278b 8dc4 bc2c 5941 d404 a7c2 5890 c143
00000090: a772 a043 f3b5 8dc4 bc87 c243 24fc f843
000000a0: e5b1 f843 5ada 4244 04cd 4ec4 9090 ae43
000000b0: 9170 7743 333c 9443 8095 6043 3d9f 8dc4
000000c0: b6f4 5c43 15ff dc43 a497 e9c2 6507 0343
000000d0: 34bd 8dc4 3636 ddc3 2317 78c3 d885 f743
000000e0: ab64 5443 a260 15c4 0434 7741 c413 9fc3
000000f0: 524f 1c44 36c4 1b44 68b2 1ec4 899b 9343
00000100: 9e40 8c43 09ba da43 c19e 1443 fe8e 1cc4
00000110: 73bb c543 c9d0 dbc3 6f2f aec2 6926 8fc3
00000120: 0e7b dac3 c87b 90c3 ca01 1c44 f8cb d343
00000130: 12e0 1b44 6c52 e0c3 cc45 5543 01d6 da43
00000140: ef82 af43 eab8 a043 6eaa 50c4 3ba2 7f43
00000150: 8d4c f843 8073 da43 e1f5 87c0 2ca3 0dc4
00000160: 40c6 1b44 6029 a3c2 ea25 7d41 b61c 7f43
00000170: 5726 0ec4 a9f8 a043 de67 3e43 d5b6 c7c3
00000180: 744f 9943 d5c8 0fc4 c4a8 4244 14c4 f743
00000190: 4222 5743 154d b7c3 f94f 8dc4 6031 91c3
000001a0: ca63 1b44 6ea2 4344 5aeb f543 ac88 8dc4
000001b0: c126 1243 c2c1 0644 1c5c f943 57f3 27c3
000001c0: 5326 4fc4 a4ed c243 97dc e443 a65b adc2
000001d0: a0d2 0644 7460 50c4 b96a 1e43 183a 8fc3
000001e0: 5aa5 0d43 17b7 7f43 a10b 1ec4 f147 8fc3
000001f0: 4f04 ae43 0119 9e42 b1f3 9243 349b 8dc4
00000200: b73e 3b44 2740 d4c3 3d7f ad43 646a 8dc2
00000210: 0a6e 50c4 2ea3 acc2 a5cb 06c3 ca66 acc3
00000220: 8ede c243 79bf 8dc4 3017 a4c1 0a9c ab43
00000230: 3af2 1043 683a ae43 5b81 51c4 3c31 86c3
00000240: 4a07 a043 494b 9443 16ba 6941 a8b1 4ec4
00000250: cc87 a043 5e39 0644 1448 5643 620d 8043
00000260: aa40 22c4 0a86 c243 2cc9 4042 3b59 9443
00000270: a0c4 db43 eac7 50c4 97f2 1e43 3c05 ad43
00000280: 20b5 0944 590a aac3 e6f2 50c4
1655.6312 869.06384 -48.496426 537.2388 259.91928 386.22488 590.4672 -610.2793
-290.9544 -291.0929 -147.83467 323.67416 -1133.5035 -339.99036 146.40222 380.19626
13.526904 -603.85144 621.41736 211.04776 779.4504 622.1607 -838.1326 528.55566
498.05334 175.34492 662.8822 -1136.1615 387.79214 536.848 13.145265 538.5404
-1132.3485 13.5734215 -83.50943 387.1277 320.89572 -1133.6859 389.06042 497.96985
497.3898 779.41174 -827.20337 349.1294 247.43971 296.4703 224.58398 -1132.9762
220.9559 441.99283 -116.79617 131.02888 -1133.9126 -442.42352 -248.09038 495.04565
212.39323 -597.5099 15.450199 -318.15442 625.2394 623.0658 -634.7876 295.21512
280.50482 437.4534 148.62013 -626.23425 395.46445 -439.63113 -87.09264 -286.30008
-436.96136 -288.96704 624.02795 423.5935 623.5011 -448.64392 213.27264 437.6719
351.02292 321.44464 -834.66296 255.63371 496.59805 436.90234 -4.2487645 -566.54956
623.09766 -81.58081 15.821756 255.11215 -568.59906 321.94266 190.40573 -399.42838
306.62073 -575.138 778.63696 495.53186 215.13382 -366.6022 -1130.4991 -290.38574
621.5592 782.53796 491.83868 -1132.271 146.15138 539.02747 498.7196 -167.95055
-828.5988 389.85657 457.72336 -86.679 539.291 -833.5071 158.41689 -286.45386
141.6459 255.7152 -632.1817 -286.56204 348.03366 79.048836 293.90384 -1132.8501
748.9799 -424.5012 346.99405 -70.707794 -833.71936 -86.31871 -134.79549 -344.80304
389.7387 -1133.9835 -20.511322 343.21906 144.9462 348.4563 -838.0212 -268.38464
320.05695 296.58817 14.607931 -826.7759 321.0609 536.89636 214.28156 256.10455
-649.0104 389.04718 48.196457 296.6971 439.53613 -835.12366 158.94762 346.0409
550.8301 -340.08084 -835.7953
